app/src/main/ml/model.tflite (tflite, 148952 bytes, 10 tensors)

arith.constant f4 [32]
00000000: 29f7 c5bb 95b4 c4bb 5f70 35bc 59c8 833c
00000010: 89c2 36bc 1445 25bb 88d1 e43b 4c5d faba
00000020: 7b5f 88bb d8d0 6fbb a75d 5f3c 3858 d0bb
00000030: 6061 e6bb d7b0 49bc 09d3 74bc 4e42 02bc
00000040: 0000 0000 25e8 333d fdde a6bb ee7c 91bb
00000050: f151 ef3a 3a32 063c 984a c43c fac2 0c3d
00000060: 322c e43a 149e 3bbb ed9f 8cbb de38 353b
00000070: 6c86 dfb9 247b 653b 34eb 2e3c 6221 3dbc
-0.0060414267 -0.0060029724 -0.011074155 0.016086744 -0.011154779 -0.0025218176 0.006982986 -0.0019101291
-0.004161773 -0.0036592986 0.013633168 -0.0063581727 -0.007030651 -0.012310228 -0.014942893 -0.007950379
0.0 0.043922562 -0.0050925002 -0.0044399416 0.0018258673 0.008190686 0.02396135 0.03436563
0.0017408191 -0.0028628157 -0.0042915256 0.0027652304 -0.00042634027 0.0035016024 0.010676194 -0.011543604

arith.constant1 f4 [32]
00000000: 60ce 21bc f2e1 bebb 6c4d 5a3c 1446 49bc
00000010: a134 033d ee3c b63b 5c34 7bbc 3c76 a4bc
00000020: 25dd a8bc b07f eb3c 1b16 7fbc 21b0 8e3b
00000030: c2cd 0e3c dc8f d2bb b49b f4bb 0642 cc3c
00000040: 9805 af3c 77e2 f6bb 30df 84bc c7ca 49bb
00000050: ebe7 b93c 37a0 8c3c 3c9d 94bc fbfb 25bc
00000060: fa03 3abc 0da8 fbba 7f72 81bc 1a93 99bc
00000070: c961 c9bb a3bf bf3b d63d 773c 821e 0a3c
-0.009875864 -0.0058252746 0.013324123 -0.012284774 0.032032613 0.0055614626 -0.015332308 -0.02007591
-0.020613262 0.02874741 -0.015569235 0.0043544923 0.008716049 -0.006425841 -0.0074648503 0.024933826
0.021364972 -0.007534321 -0.016219705 -0.003079103 0.022693595 0.01716624 -0.018141381 -0.010130878
-0.011353487 -0.0019199863 -0.015801666 -0.018746901 -0.00614569 0.0058517023 0.015090426 0.008430125

arith.constant2 f4 [32]
00000000: 2592 da3c bc17 e23b 028a 93bc eb6c e73a
00000010: 156f c03b 0000 0000 9c56 853c 156f ffbc
00000020: 9405 3d3c 0000 0000 2977 c9bb 6a78 f2bc
00000030: 89b3 163c f0b1 733c 1b21 bcbc babe 25bd
00000040: 35ca 1cbc b021 353d 5c15 22bd 6ac1 70bb
00000050: d5de e339 d6e1 96bb 0a59 59bc ab99 35bd
00000060: 85ca 853c c900 2d3c 0bbc 3b3b e78a 0cbc
00000070: 783a feba 20e6 92bb 6add e63c 3c26 ea3c
0.026681015 0.006899802 -0.018010143 0.0017656361 0.005872617 0.0 0.01627665 -0.031180898
0.011536974 0.0 -0.006148238 -0.029598434 0.009198078 0.014873967 -0.022965005 -0.040465094
-0.009569694 0.04422158 -0.03957115 -0.0036736378 0.00043462837 -0.0046045585 -0.0132658575 -0.044336002
0.01633192 0.010559269 0.0028646018 -0.008578039 -0.0019396087 -0.0044829994 0.02818175 0.028582685

arith.constant3 f4 [32, 3, 3, 32]
00000000: 387a dabc a248 80bd c4dd b7bc 5327 243d
00000010: 225a c1bd d243 48bd 674d 973d 1836 613d
00000020: 8b7f 05bd 62c7 843b d752 e5bb 02a6 2bbb
00000030: 10a6 b63c cfc9 08bb f501 48bd 2206 733c
00000040: c027 4cbc fad6 b23c f8a8 873c 11da 203d
00000050: 50b2 4c3d a0a5 98bd 694f 473d ec26 bcbd
00000060: f0d9 a63d 1e6f 7bbb 686e d2bd a336 bbbd
00000070: 8fa5 98bc bbd6 aabc c14c 85bc ade0 70bd
00000080: d8d4 e9bc 1e68 73bd 4cc1 f03c e739 cebd
00000090: 2085 de3c 86ed 9a3d b594 673d 81b9 3c3c
000000a0: a5fb 9dbc ba9c bcbd d159 443d 407c 93bd
000000b0: 34e1 f8bc 2ca3 7cbd eba1 95bc ce2d d93c
000000c0: c0c1 cd3d 7983 e23c e6e1 09bd 5361 803d
000000d0: 0ef0 883d 6273 223d 177c c2bc 6452 b73c
000000e0: 008d ffbb 47b3 173d eb5e 333b 806c ed3c
000000f0: 8502 95bc 6afe a3bc 4056 d8bc 0252 98bd
00000100: e45c 88bd d5b9 c03c cd1c bebd d7df 083c
00000110: 2056 47bc 04ad 7abd aa84 f1bb 7944 00bd
00000120: a3df 053c a1f7 51bb a160 f8bc eb76 07bd
00000130: cb09 373d 8265 22bc 0a4a 9a3d c586 d23b
00000140: 245b 90bc 03db 803d f060 1c3d b86d babd
00000150: 4876 6e3d a414 9ebd 8099 adbd 36cd c8bd
00000160: 7454 9f3c b111 48bd d0f4 a53c 17f1 683d
00000170: fdd5 9bbd 1733 d3bd ffc6 e33c 8a30 af3d
00000180: 55dd 18bc e8e8 9fbd 4b06 a7bd 255a a7bd
00000190: 78cb b73d 645e 00bd 0bac 5ebc f199 233d
000001a0: b6a0 e23c 5fdb bfbd 677f 1a3d 91c4 91bc
000001b0: d325 403d bda9 bc3d ea59 ba3c 151a 88bd
000001c0: 8288 40bd 8271 d4bd b832 21bd 4405 bf3d
000001d0: d030 abbb 5326 43bd 8fce c0bd 488d b93d
000001e0: 0652 a7bd 28a3 b5bd e0ac b3bd 791c ae3c
000001f0: 3db8 7d3d 3938 883d 8c1f 833c 9013 5b3d
00000200: bd02 afbd 2d5d 823c 5df1 72bc dde1 b9bd
00000210: 88ea 86bd e7c1 82bc 6fec 013d c571 813d
00000220: a709 7cbc 582c 533c 055e 83bd 8d0e 5cbd
00000230: 9b57 c33d 3843 77bd aec5 bc3d b092 f1bb
00000240: 5026 fb3c 0828 78bc 4121 8f3d c705 c33d
00000250: cce4 b13d 373a 21bd 2386 c33d ccf6 0e3d
00000260: 0053 71bb b558 cfbd e1cc c7bd 825c adbc
00000270: b171 74bc 17a4 7c3d 9b98 caba dad5 bc3c
00000280: 0322 57bc 8a40 b2bd 7754 52bd 2aa4 0cbd
00000290: 1c26 92bd bc36 823d 2e0a dcbb e506 ecbc
000002a0: 4dc1 b2bc 6b69 b53d 8ff6 28bc 5531 0b3d
000002b0: a7b6 c9bd f158 c83c 89dc 963d 2793 8ebd
000002c0: ba6f af3d 845c 04bc 3b08 b1bb d216 753d
000002d0: c877 21bd 006b c53d a662 b9bd a680 c03d
000002e0: b66c a03d 8cf8 78bd 459f 3d3d 33b7 dcbd
000002f0: 6aed 9cbd 126f 96bd 70b0 b53d 358f 9dbd
00000300: 4e69 4cbc c960 b9bd 424b 283d 6d31 a23d
00000310: 87da 23bc 5a03 983d 76f1 903d 09a4 cfbd
00000320: d52b 643d 199d c03d 2085 c8bd dba8 753d
00000330: a0b3 eebc 4d4f 3e3d 279f 653c 5b58 d4bd
00000340: 8435 323d 5088 213c b31b 02bd 8feb cebd
00000350: 64a9 66bd d891 cbbd 6274 1cbd ddff cfbd
00000360: 34a6 9f3c b645 2fbc 688c c5bb d2ce bc3d
00000370: e487 bd3c 302a ddbd 763d a6bd d808 123d
00000380: 953b 213d 47dd 83bd da1a 84bd 2988 e9bc
00000390: 2316 ca3d 93ed 10bc 3078 3bbd efa0 a53d
000003a0: 3ed4 adbd 390e 4cbd 8d22 48bc 0eaf ae3c
000003b0: e9f4 a0bd d695 a8bd 2b32 6abd 5b47 923d
000003c0: a86d b1bd ddc4 dc3b bbf5 543d 3635 703d
000003d0: 0ccc 403d 18fd 893d 339a 05bd 913f 74bd
000003e0: d85f 173d 4864 ccba 5a7f 723d 6597 a3bc
000003f0: 09bb 8e3c c663 3b3d 5896 903c 1299 98bd
-0.026669607 -0.062638536 -0.022444613 0.040076565 -0.094410196 -0.048892803 0.0738781 0.05498323
-0.032592338 0.0040520886 -0.0069984007 -0.0026191478 0.022295982 -0.002087224 -0.04882999 0.014833005
-0.012460649 0.021831024 0.016560063 0.039270464 0.04997474 -0.074534655 0.048659716 -0.09187111
0.08147037 -0.0038365792 -0.102749646 -0.091412805 -0.018633632 -0.020854345 -0.01627195 -0.058808018
-0.028543875 -0.059425466 0.029389046 -0.10069638 0.027163088 0.07564835 0.056538302 0.011518837
-0.019285033 -0.09209581 0.047937218 -0.07201433 -0.030380823 -0.06167905 -0.018265685 0.0265111
0.100467205 0.027650582 -0.0336627 0.06268563 0.06686412 0.03966082 -0.023740811 0.022378154
-0.007798791 0.037036207 0.0027369808 0.0289824 -0.018189678 -0.020018775 -0.026408315 -0.07437517
-0.066583425 0.023526112 -0.09282837 0.008354149 -0.01216653 -0.061200157 -0.007370551 -0.0313153
0.008170995 -0.0032038467 -0.030319514 -0.033072393 0.044687074 -0.009911897 0.07533653 0.006424757
-0.017621584 0.06291773 0.038178384 -0.091029584 0.05821827 -0.07718781 -0.084765434 -0.09804766
0.01944945 -0.048844997 0.020258337 0.056870546 -0.076091744 -0.10312479 0.02780485 0.0855418
-0.009330113 -0.07808095 -0.08155497 -0.081714906 0.089743555 -0.031340018 -0.013590823 0.03994173
0.027664524 -0.093680136 0.037719157 -0.017793925 0.046911072 0.092120625 0.022747952 -0.066456
-0.047005184 -0.103732124 -0.03935501 0.09327176 -0.0052243248 -0.04764397 -0.09414398 0.090601504
-0.081699416 -0.0886901 -0.08773208 0.021253811 0.06194328 0.066513486 0.016006254 0.053485453
-0.08545444 0.01591357 -0.014828053 -0.09076283 -0.06587702 -0.0159616 0.03171962 0.06320528
-0.015383161 0.01288899 -0.06414417 -0.053724814 0.09538194 -0.06036684 0.09217392 -0.007372223
0.030657917 -0.015146263 0.069887646 0.09522586 0.08686218 -0.03936216 0.09547069 0.034903333
-0.0036823153 -0.101243414 -0.097558744 -0.021162275 -0.014919684 0.061679926 -0.0015456857 0.023051191
-0.013130668 -0.08703716 -0.051350083 -0.034336247 -0.07136175 0.06358096 -0.0067150807 -0.028811881
-0.021820689 0.088579975 -0.01031269 0.033982594 -0.09849291 0.024456473 0.073662825 -0.06961661
0.08566232 -0.008078698 -0.0054025925 0.059836216 -0.039420873 0.09639549 -0.09052019 0.09399538
0.07833235 -0.060783908 0.04629447 -0.1077713 -0.07662471 -0.07345404 0.088715434 -0.0769333
-0.0124762785 -0.090516634 0.041087396 0.079195835 -0.010000831 0.07422514 0.07077305 -0.10138709
0.055705864 0.09404964 -0.097910166 0.059975486 -0.029138386 0.046462346 0.014014996 -0.10368415
0.043508068 0.00985916 -0.031764697 -0.10103523 -0.056313887 -0.09939927 -0.03819693 -0.10156224
0.019488432 -0.010697773 -0.0060287006 0.09219135 0.023136087 -0.10799062 -0.081171915 0.035652965
0.039363462 -0.0643869 -0.06450434 -0.028507309 0.098675035 -0.008845705 -0.045768917 0.08087336
-0.084877476 -0.04981825 -0.012215269 0.021323707 -0.07859213 -0.08231704 -0.05717675 0.07142516
-0.086634934 0.006737335 0.05199216 0.058644496 0.047069594 0.06737727 -0.03261776 -0.059630934
0.036956638 -0.0015593851 0.059203483 -0.019969651 0.01742317 0.04574945 0.017649814 -0.07451071

arith.constant4 f4 [32, 3, 3, 32]
00000000: 10f9 ae3d 7c6f 4fbd a434 213d cc2e 21bd
00000010: dfda 413d 00c3 53bc a138 97bc 5f69 7dbd
00000020: 3447 c73d e856 623d 0b3d 86bd 3f99 d4bd
00000030: 670d c9bd b066 ec3c e868 8ebd bb0e d5bd
00000040: 4155 b6bd fad1 223d ed4e 6abd d558 483d
00000050: 2191 963b 9ca1 d4bd abef 75bd d910 963d
00000060: ed58 63bd c6cf b5bc bbb2 913d bd74 c0bc
00000070: b83a b2bc 55d5 d1bd 348d 1c3d 8c36 8dba
00000080: ae14 cabb 0a8c a5bd 0f05 893d 6a9d d1bd
00000090: a8a1 ad3d de68 8dbd 95ba 183d 32f3 a23c
000000a0: 204f 2f3b 2016 603c 51ef 67bd 95f9 1e3d
000000b0: 714f 1f3d 596d cdbd a1ca c3bd 43d2 803d
000000c0: c228 553c bf9b b03d 8ce6 d6bd c0b0 aa3d
000000d0: f076 bfbd df53 d23c 98ca 843d 6ce6 a7bc
000000e0: 0b01 4abd 3818 82bd fff9 15bd 4e94 373d
000000f0: 97de 703b 4867 49bc e2bb 3bbd a344 0f3d
00000100: 3693 b53d 5d3f 3dbd 7912 74bd 27f4 d9bd
00000110: fd2e b8bd 0047 f63c 9db8 3c3d ee5c 6dbd
00000120: f86d 263d 5adb cfbd be05 5e3c 0d7a 29bb
00000130: 7e9b 613d 4076 5abc 9c55 07bd b41f 33bd
00000140: ac04 d1bd 98fc cfbd d330 713d b6e7 41bd
00000150: 9385 20bd c64a 9d3d 27f0 92bd f32d babd
00000160: 491a 87bd d6a5 793d a8f0 cebd 3fd1 8e3d
00000170: a98f e93c 1969 b7bc 30c9 2ebd c513 abbd
00000180: 3c18 4cbc f38c bfbd 266b 90bd e130 ea3c
00000190: ab9b 533d c014 c0ba 06a0 273d 2753 28bd
000001a0: f439 933d b0ee 453d 5500 5bbd b5b7 f3bb
000001b0: bc1b 7d3d 3d0c 15bd 7a13 853d 6697 a83d
000001c0: 213b f83b fd60 9ebc 20a1 92bd d2b9 a53c
000001d0: ee0b 31bd b528 93bb f04f cd3c b5b0 493d
000001e0: cc7e fbbc cf8b 373d 4267 b93c c523 6fbd
000001f0: 370c fd3c 9ec1 28bd 6e78 a1bd 2aeb 4f3d
00000200: a51d d3bd 232f 4ebd 6084 053d dbc3 54bd
00000210: 6589 75bd a081 213d d611 d4bc 7a67 9fbd
00000220: e62d 14bd 88e2 a23d 312d bfbd a307 a43c
00000230: eea6 563c 9cb8 c2bd 632a ae3d 13a5 603c
00000240: 4085 abbb 6151 87bd 3aa6 4d3c c11d 2f3d
00000250: 18e9 133d 19e1 0a3d c046 a6bd f046 fd3c
00000260: 60f3 06bd 40b2 9c3d 451a 8e3d 4452 73bd
00000270: 26a5 113d b22d 503d 689b c73c 0979 9ebc
00000280: 2f0c 6ebd 0f31 ac3d 3853 04bd d268 243d
00000290: 2771 3d3d 2095 2dbc d916 34bc 4259 dbbd
000002a0: 42d8 6f3c 703d 263c e524 743d 5f03 863d
000002b0: 80ec 943b 391a 9ebd b628 11bd 64c5 88bd
000002c0: a14f 54bd 3a98 f73b b3bf b3bd c666 543c
000002d0: 46d4 973d 99c1 a3bd ee8d 7d3d bda1 1c3d
000002e0: 88ce 813d c7fd 173d 7255 99bd a139 183d
000002f0: d017 5a3d b140 023d 8412 82bd a686 c2bc
00000300: ec66 abbd b02f f23c 8be5 db3c 1e67 c3bc
00000310: 714e a13d 6e13 1fbd c898 e6bc bf77 7f3d
00000320: 35e3 acbd 90dc cc3c 0067 673c 9b21 013d
00000330: dcdc 283d acae 53bd 966e 30bd 6112 52bd
00000340: f891 83b9 4963 b2bd 9925 22bc 898c 0b3d
00000350: 3740 d5bc eb68 57bd 9899 acbd 8123 04bd
00000360: e7af 53bd ffaf 0e3d 3faa 3e3c 507f 0b3d
00000370: d7dd 05bd 5431 2cbd 48a7 2d3c 7305 383d
00000380: c43b d1bd e497 c1bd 0e9d 77bd 1072 1c3d
00000390: a564 223d 88ad 503c 5deb bfbd e922 87bd
000003a0: 1dbb 703d b215 99bd 787c 113d fd1c da3c
000003b0: a12b a4bd 6692 c23d 7fbb 1d3d dacc ae3d
000003c0: d5e2 473d f061 06bd 828d 1b3c fab1 433d
000003d0: 9f17 15bd 5bf6 553c 6cec 8f3d 7bb1 153b
000003e0: e6aa bcbd 8a64 06bd 5493 1abc a8bc 943d
000003f0: ab4a 4abc 556d 893d bcbf 903c c332 463d
0.08543599 -0.05064343 0.039356843 -0.03935127 0.047327872 -0.01292491 -0.01845962 -0.061868068
0.09730378 0.05525866 -0.06554612 -0.10380792 -0.098170094 0.028857559 -0.06953603 -0.104032
-0.0890298 0.03975103 -0.057204176 0.04891284 0.0045949374 -0.10382387 -0.06004302 0.07327432
-0.055504728 -0.0221938 0.07114168 -0.023493165 -0.021756515 -0.10245768 0.0382206 -0.0010773703
-0.006167016 -0.08083351 0.06690418 -0.102351025 0.08478099 -0.069047675 0.037287313 0.019891355
0.0026750043 0.01367715 -0.056624714 0.03881224 0.03889412 -0.10030622 -0.09560133 0.06290104
0.013010206 0.08623456 -0.10493192 0.08334494 -0.093488574 0.025674758 0.06483954 -0.020495616
-0.0493174 -0.063522756 -0.036615368 0.04481917 0.0036753768 -0.012292691 -0.045833476 0.034977566
0.08865969 -0.046203006 -0.05958793 -0.106422715 -0.08993337 0.030063152 0.0460745 -0.057949953
0.040632218 -0.1014926 0.013551174 -0.0025860101 0.05507993 -0.013333857 -0.033040628 -0.043731406
-0.10205969 -0.101556 0.058884453 -0.047340117 -0.039189886 0.076802775 -0.07174712 -0.09090795
-0.0659681 0.06094917 -0.10104495 0.06973504 0.028510885 -0.022388982 -0.042672336 -0.0835338
-0.01245695 -0.09353056 -0.07051687 0.02858776 0.05166213 -0.0014654621 0.040924095 -0.041094925
0.07188788 0.048323333 -0.053467114 -0.007437671 0.061794028 -0.036388624 0.064978555 0.08232002
0.007575408 -0.019333357 -0.071596384 0.020230208 -0.043224268 -0.0044909366 0.025062531 0.049240787
-0.03070011 0.044811066 0.022632245 -0.05838372 0.030889614 -0.041200273 -0.07884298 0.05076138
-0.103083886 -0.05033792 0.032596946 -0.051944595 -0.059945483 0.03943026 -0.025887411 -0.077834085
-0.036176585 0.07953364 -0.093347915 0.020023173 0.013101323 -0.09507868 0.085041784 0.013711232
-0.0052343905 -0.06607319 0.0125518385 0.042752985 0.036110967 0.033906076 -0.08118963 0.030917615
-0.032946944 0.07651186 0.06938604 -0.059404626 0.03555789 0.05082483 0.024366096 -0.019344823
-0.058117088 0.08407795 -0.032305926 0.040139027 0.04625049 -0.010594636 -0.010991775 -0.10710384
0.014638962 0.010146484 0.059605498 0.06543612 0.0045447946 -0.07719845 -0.035439216 -0.06678274
-0.051833753 0.0075559886 -0.08776798 0.012963956 0.07413535 -0.0799591 0.061902933 0.038240183
0.06338221 0.037107255 -0.074870005 0.037164334 0.053245366 0.031799976 -0.06351188 -0.023745846
-0.0836924 0.029563755 0.026842853 -0.023852881 0.0787629 -0.03883689 -0.028149024 0.06237006
-0.08441774 0.025007516 0.014123678 0.03152619 0.041226253 -0.051680252 -0.043074213 -0.05128706
-0.00025095022 -0.087103434 -0.009896659 0.03406957 -0.026031597 -0.052590292 -0.08427733 -0.03226042
-0.051681425 0.03483581 0.0116372695 0.03405696 -0.032682266 -0.04203923 0.010598965 0.04492707
-0.102164775 -0.09452799 -0.060452513 0.038194716 0.039646763 0.012736686 -0.09371064 -0.065984555
0.058772195 -0.07474841 0.035519093 0.02662515 -0.08016134 0.095005795 0.03850889 0.08535166
0.04880031 -0.032808244 0.009494187 0.047777154 -0.03639948 0.013059224 0.07027516 0.0022841382
-0.09212284 -0.032810725 -0.00943454 0.07262546 -0.012346904 0.067103066 0.017669551 0.048388254

arith.constant5 f4 [3, 128]
00000000: 204d 49bd 0a8e 0c3e 6c43 c53d 18b2 2abc
00000010: 0a5d 57bd 3d27 29bd c742 e03d 754d 183e
00000020: 7e2f a5bd e0fe 16be 368d 0a3e b665 66bc
00000030: e0b2 2bbd 410d 03bd d659 633e b23f 1bbe
00000040: 09de 843c 8959 3ebe 5190 55bd a430 76be
00000050: 3692 673e 29f5 283d 24f8 3bbe 3803 363e
00000060: 2f88 463d 79ce 143e 7bcf dabd 22fc 57be
00000070: 5ace 843d 821f ebba 9b20 973d ea21 cc3d
00000080: f3ed 85be 4132 a53d 32cb 6ebd 1338 473d
00000090: 04f1 703e 1df3 703e 9621 8b3d 2157 7cbd
000000a0: 549e 5b3d d841 1f3e 7d74 183e 7604 483e
000000b0: fc5f b8bd 6ed0 bf3d d11c a2bd 43fa a2bc
000000c0: 62ad 563e fa90 443e 66af c5bc 5bfd cd3d
000000d0: 5517 2bbe 6877 08be f201 4fbd 70a2 17bd
000000e0: e1e4 3a3e a7bc 453c d018 0a3e 1038 c4bd
000000f0: f2d1 b03d e03f b9bd d07a 073e 3503 733e
00000100: 514f 283e 501d efbd 2703 63bc e5f3 2cbe
00000110: 434e 1dbd ad4b 4abe 2212 fd3b c9cd c0bd
00000120: f324 133e e171 853d 6d20 be3d 4400 543e
00000130: d88f 023d f431 0c3e 2188 f63d eaa2 43bd
00000140: 65e3 d3bd eb36 e33d 7627 343e 7c26 31be
00000150: c3c3 8a3d d685 46be 8550 293e d6b3 0fbe
00000160: 2d85 743e 1018 36bc 6a31 2dbe 4f7c 92bd
00000170: 9404 613d db5f 933d 5669 fa3d f36d 75be
00000180: 3e0d 0b3e b362 f0bd b3f1 f33d d6f8 04be
00000190: c931 aabd 67e5 183e a7ae 67bd 6529 53be
000001a0: d07e 57be 3a21 36be 4429 173d 8e51 713e
000001b0: 879d 85bd a903 053e 84d4 3e3e 7691 533e
000001c0: 2c3c 6b3e c592 923d ce4b 84bd 822e 3bbd
000001d0: 3f44 c5ba b08e 193e c42a 29be 7c95 8abe
000001e0: f109 2f3e 74a8 2f3e 40f3 9cbd e44a 303e
000001f0: 468a 533e b712 1fbe 869f 013e a2b1 a5bc
00000200: f729 0fbe f0af 22be 4c5e 85bc be91 1bbe
00000210: 78bc d63d fba2 423e 49e6 a93d 56c8 72bc
00000220: e37d 803e 1a10 b8bd 7a21 a4bd 6a8f 3dbe
00000230: 4a89 513e 2444 cabd 506e 9abe 82ef f43d
00000240: a6da a5bd ad64 05be 31a4 75be 5204 6fbc
00000250: 2704 5fbe 774e 5cbd eccc 98bd 754c 093e
00000260: e8c1 c43d 44ec a8bd 9259 243d 1f8d 2f3e
00000270: 6cf4 1e3d 6bb9 17bd 41ec 393e f904 463e
00000280: 685a d1bc 4327 91be 45b9 c63c 89f1 81be
00000290: df26 74be 990c 103d 3442 90bd 4829 20be
000002a0: 0bd9 0cbe 1371 53be 3ea4 1cbe 59ce 58be
000002b0: 8121 7b3e e478 493d 09f6 ccbd ebc0 c23d
000002c0: 35d6 f0bd cde2 8b3d 2274 303e e48d 8e3b
000002d0: b92c 6fbe 2bcd f33d 58fc b63d 1217 48be
000002e0: a97c 14be 9e17 383e c985 a9bc 6312 6c3e
000002f0: 76a2 dbbd a81c dcbd f664 febd 9384 fe3c
00000300: ac0e 57be 530d 0c3e e732 15be 1035 3aba
00000310: d261 413d 7d1f c7bd e8c0 14be a349 2a3d
00000320: 2e1c b3bd c7b3 2b3d a584 01be 6547 4fbe
00000330: ec5a 613e b71e 1abb 38ec e33d 61af 4a3e
00000340: cda2 91bd 41a2 68bd c1e9 72bc b7a2 733d
00000350: 4de0 153d 4f9b 203e 6209 6cbe 8c36 1f3e
00000360: 5ff1 53be 8a3b f1bd d789 bc3d 0be5 55be
00000370: 0c1f edbd 1be6 a63d f1a6 9e3b 93d5 9c3d
00000380: 3645 50be 0bd0 f4bd d09a 46be 9a0f a5bd
00000390: eafc 06be 8706 67bd 93ef 8d3e 25b0 a93d
000003a0: afc4 45be 2916 0e3d 76af 80bd 330e 4c3e
000003b0: 9e86 603c f724 b63d bc44 26be 5709 bdbd
000003c0: 09a3 2f3e c5fe 713c 48e5 5bbe 6a79 5dbe
000003d0: 394e eb3d 25af 17bd 77e1 c53c 9b39 46bd
000003e0: a589 75be a86b 893c a229 19bd 1843 0bbd
000003f0: ed3f 67be 4513 39be bfdf eabd b8aa cf3d
-0.049145818 0.13726059 0.09632 -0.010418437 -0.052578963 -0.041297186 0.10950237 0.14873298
-0.08065699 -0.14745665 0.1353043 -0.014062336 -0.041918635 -0.03199506 0.22202238 -0.15161017
0.016219156 -0.18588842 -0.052139584 -0.24041992 0.22614369 0.041249428 -0.18356377 0.17774665
0.04846972 0.14531888 -0.10684105 -0.21092275 0.06484671 -0.0017938467 0.07379266 0.09967406
-0.26158103 0.08066226 -0.05829925 0.04863746 0.2352944 0.2353024 0.067935154 -0.06160653
0.05361779 0.15552461 0.14888187 0.19532952 -0.090026826 0.09365927 -0.079156525 -0.019894725
0.20964578 0.19195929 -0.024131488 0.10058089 -0.16708119 -0.133268 -0.050538965 -0.037020147
0.18251373 0.012068904 0.13486028 -0.095810056 0.08633794 -0.09045386 0.13230443 0.23731692
0.16436507 -0.11675513 -0.013855732 -0.16889913 -0.038404714 -0.1975543 0.007723109 -0.094142504
0.14369564 0.06515861 0.092835285 0.20703226 0.03187546 0.1369093 0.12037683 -0.04776279
-0.103461064 0.11094459 0.17593178 -0.17299837 0.0677562 -0.19386992 0.16534622 -0.14033446
0.23878928 -0.011114135 -0.16913381 -0.07152616 0.054936007 0.07196017 0.122271225 -0.23967724
0.1357927 -0.117375754 0.11911335 -0.12985548 -0.08310277 0.1493126 -0.056563046 -0.2062126
-0.21044469 -0.17786112 0.03690459 0.23566267 -0.065241866 0.12989677 0.18635756 0.20660958
0.22972172 0.071569 -0.06459771 -0.04569865 -0.0015050246 0.14995837 -0.1652022 -0.27067173
0.17093636 0.17154104 -0.07663584 0.17216069 0.20658216 -0.15534483 0.1265851 -0.020226303
-0.13980852 -0.15887427 -0.016280316 -0.15192315 0.10485166 0.19007485 0.082958765 -0.014818272
0.25096044 -0.08987446 -0.08014198 -0.1851174 0.20462528 -0.09876278 -0.30162287 0.11959745
-0.080983445 -0.13026686 -0.23988415 -0.014588432 -0.21778928 -0.053785767 -0.07460961 0.13408072
0.09607297 -0.08248189 0.040124483 0.17143677 0.038807318 -0.037042063 0.1815653 0.19337834
-0.025555804 -0.28350267 0.024258265 -0.2537959 -0.23842953 0.035168264 -0.07043877 -0.15640748
-0.1375467 -0.20648603 -0.15297028 -0.21172465 0.245245 0.049187556 -0.10007865 0.095094524
-0.11759607 0.06830368 0.17231801 0.004350411 -0.23356904 0.11904367 0.089348495 -0.1954005
-0.14500679 0.17977759 -0.020693677 0.23053889 -0.10724346 -0.10747653 -0.124216005 0.031069076
-0.2100169 0.13676958 -0.14570199 -0.0007103244 0.04721243 -0.09722803 -0.14526713 0.04157413
-0.08745609 0.041919496 -0.12648256 -0.20242079 0.2200734 -0.0023516843 0.111290395 0.19793464
-0.0711113 -0.056795362 -0.014826239 0.05948135 0.036590863 0.15684246 -0.23050454 0.15548152
-0.20697545 -0.11778934 0.09205978 -0.20888154 -0.11578187 0.08149358 0.0048416783 0.076579235
-0.20338902 -0.119537435 -0.19394994 -0.080596164 -0.13182417 -0.05640271 0.27721843 0.0828555
-0.1931331 0.034689102 -0.062834665 0.19927292 0.01370397 0.08893769 -0.16237158 -0.09230297
0.17152037 0.014770214 -0.21474183 -0.21628347 0.11489529 -0.037032265 0.024155362 -0.04839478
-0.23978288 0.016774967 -0.03739322 -0.033999532 -0.2258298 -0.18073757 -0.114684574 0.10139984

arith.constant6 f4 [128, 128]
00000000: 0366 573b 2c99 5c3d 2a82 14bd 2d75 6c3d
00000010: 0dc5 bebd a4cf debd 541c 8bba 2cdb c23d
00000020: dce6 f03d 4b59 febd ede0 0ebe 9973 29bd
00000030: 9900 83bd 2b18 bfbd 30bb 87bc 4892 20be
00000040: 1378 183e ae82 30bd b49d d7bd 8307 9e3c
00000050: 4e51 04be 8e2f 07be 037a 17be 5b1b 23bd
00000060: 7cb2 b63d 3a62 cb3c 83cf ac3d e2ce 083e
00000070: 6a51 0a3e 8ae9 9e3c 0e3f 15be f8c3 edbd
00000080: 75d7 ca3c e067 713c 720d 133e d473 10be
00000090: af62 b83d baf0 843d 4fa1 0f3e 26e7 65bd
000000a0: 7a33 eb3d 17d4 b5bd f792 9ebd cd7d de3c
000000b0: dce4 143e 9ec4 123e 91d7 cbbd 094c 3f3d
000000c0: 5eaa 82bd 1020 78bd c904 83bd ddef b03d
000000d0: d8ec 59bc bc46 cbbd 296d b2bd 1f8b ed3d
000000e0: f855 f8bd be5d 983d 2560 cdbd 1dcf 0d3e
000000f0: 4e56 e1bd be73 b23d 59a0 1bbe 00ee e1bb
00000100: aecb 9a3b 8622 96bd 44d6 d8bc 4b3a da3c
00000110: 8827 0abc 40da 253b c678 853d 0daa e53d
00000120: 1298 283d 2499 ab3d a568 00bb 76ea ab3c
00000130: ee1a dcbc d38e 7538 64e9 c83d ae28 103e
00000140: 010f 153e 5856 0fbe 72cc 053d fe03 f63d
00000150: f16f a1bd 9e29 893d 69d5 16be f78c 143d
00000160: 4ee6 d3bd dd3a bb3c 168a 05be 29fd 813c
00000170: b280 a63d bea9 b23c bd2f 0cbe 5868 fe3c
00000180: 1661 cbbb 08c9 03be 61b4 503d f03c d63d
00000190: 000d 8b3d 074b 103e b01b 63bd 57eb 92bd
000001a0: 42d9 a83d 9265 ed3d a696 ae3d f81e 57bd
000001b0: 6d33 fb3d 44af c2bd 561b fb3c f738 d8bd
000001c0: a87e 553d 1d6d f8bd 6515 493d ac77 adbc
000001d0: 7950 b93d d523 b03d 4300 13bc 47e5 78bd
000001e0: e44c 13be ccf4 00bd 12a5 cdbd 1960 c23d
000001f0: 5d0f 93bd 5380 5fbd 2458 c43d 340b ac3d
00000200: 6029 203c 56b1 06be 36d4 c63d f621 11bc
00000210: a04e dcbb 54cd 97bd e575 153c 68d4 5e3d
00000220: 4abd ff3d 7e20 16be 5c6b ea3c 7b20 043e
00000230: e01a 34bc 44d1 c53d 09a2 d43c 3473 ddbd
00000240: f491 ba3d 8fa0 98bd 7d1a ccbd 295e bc3d
00000250: ecba 91bd cb2b fabd 5af3 ffbd 7a2e ea3d
00000260: 336e ff3d c07e 29be bef2 b03d 49f2 20be
00000270: b590 96bd 2c57 193d bd24 d53d 6732 eabd
00000280: 5a6b cbbd f482 693d f0ef e5bd 2888 1d3d
00000290: f4a1 18bd db3b 0abe e2bc 12be e894 44bd
000002a0: 5d18 103e 2534 8b3c 0701 8b3c aabc c03d
000002b0: d740 b7bd 3546 d4bd 746a 513d 0866 86bd
000002c0: 0203 d33d da1f f83d ac69 af3d add3 dfbd
000002d0: d922 99bd 766c febc b9b8 de3d e8bd 3c3d
000002e0: af11 0ebe d677 0f3c 67e7 103e 4b6a 0ebe
000002f0: e32e ebbd d844 fd3c 92bb ed3c 0e42 c83d
00000300: 6080 9f3c e0db 113d 2e69 fc3d 47f9 053e
00000310: 78ef cfbd aab5 dd3d 7a9f 9f3d b2f3 c93d
00000320: 3478 5a3d 14f2 bdbc 3a3f cc3b f2ba fa3d
00000330: 7a5b fcbd c425 4b3d 8f7d 71bd 2740 1b3e
00000340: 0a29 fb3d ee64 29bd 7c3b aabd 6bc6 81bb
00000350: 94ec 133d 1e3a 413c 47f8 dfbc 449b b4bd
00000360: 0834 e33d a5bc 13bc aa01 ea3d 5f6c 23be
00000370: f4af 39bd 2dc9 18be 44f7 babd f572 163e
00000380: 34cf b43d 3e8f 65bd 080a 223d e96b 563d
00000390: b180 143e 565f e83d 5dfd fdbd 859d 633d
000003a0: 4037 c83b c321 d0bd 0043 ee3d 20a4 b83b
000003b0: a4b5 d7bd 5089 8d3d 9420 913d ddb8 17be
000003c0: 0b3a 1abe 568b c63d ee4d a03d 10a4 16bc
000003d0: 5159 f9bd e0fe 16be 1b79 9fbd 8f4b 09be
000003e0: 4f76 ba3d fe58 07ba 6ff5 06be 8133 f53d
000003f0: a563 1b3d feae 08be aa58 ecbd 2872 b7bd
0.00328672 0.053857014 -0.036256947 0.057728935 -0.09314928 -0.10879448 -0.0010613301 0.0951446
0.11762783 -0.12419375 -0.1395299 -0.04137001 -0.06396598 -0.093307815 -0.01656875 -0.15680802
0.14889555 -0.043093376 -0.10528126 0.019290691 -0.1292164 -0.13201734 -0.14792638 -0.03982101
0.08920762 0.024827112 0.08438017 0.1336017 0.1350762 0.01939847 -0.14574835 -0.11609644
0.024760941 0.014734238 0.14360598 -0.14106685 0.090031974 0.064912274 0.14026378 -0.056128643
0.11484428 -0.088783436 -0.07742875 0.027159596 0.14540428 0.14332816 -0.099532254 0.046703372
-0.06380151 -0.060577452 -0.06397397 0.086395 -0.013301097 -0.09925601 -0.08712227 0.11598801
-0.12125772 0.07439755 -0.10028104 0.13848539 -0.110027894 0.08713482 -0.15197887 -0.006894827
0.0047239875 -0.073308036 -0.026469357 0.026639124 -0.008432277 0.002530709 0.06517176 0.11214075
0.04116065 0.08378819 -0.0019593623 0.020985823 -0.02686831 5.8545567e-05 0.09810141 0.14078018
0.14556505 -0.13997781 0.032665677 0.1201248 -0.07882679 0.06697391 -0.14729847 0.036267247
-0.103466615 0.022855217 -0.13040957 0.015867786 0.081300154 0.021809455 -0.13690086 0.031055614
-0.006206642 -0.12869656 0.050953273 0.10460842 0.06789589 0.1409112 -0.055446327 -0.07173794
0.08244564 0.115916386 0.08524828 -0.05251977 0.12265668 -0.095060855 0.030652683 -0.1055774
0.052122742 -0.12130187 0.04909267 -0.021175228 0.09048552 0.086005844 -0.00897223 -0.06076553
-0.143848 -0.031483456 -0.1004125 0.094909854 -0.07180665 -0.05456574 0.09587124 0.08400574
0.00977549 -0.13153586 0.09708445 -0.008858195 -0.00672324 -0.0741221 0.0091223465 0.054401785
0.12487276 -0.14660832 0.028615646 0.12903015 -0.010992736 0.09659055 0.02595617 -0.10812989
0.091098696 -0.07452499 -0.0996599 0.09197647 -0.07115731 -0.12215384 -0.124975875 0.11434646
0.12472191 -0.16552258 0.086400494 -0.15717424 -0.073518194 0.03743665 0.10407398 -0.11435395
-0.09932585 0.057009652 -0.11227405 0.038459927 -0.037263826 -0.13499396 -0.14329866 -0.04799357
0.14071794 0.016992638 0.016968263 0.09410985 -0.08947914 -0.103649534 0.051126912 -0.0656243
0.10303308 0.1211545 0.08565077 -0.10929046 -0.0747735 -0.031057578 0.10875077 0.046079546
-0.13873933 0.008756598 0.14150773 -0.13907735 -0.11483552 0.030916616 0.029020105 0.09778224
0.019470394 0.03561008 0.12324749 0.13083373 -0.10153097 0.10825665 0.077940896 0.09860934
0.05333729 -0.02318672 0.006233123 0.12242688 -0.12322135 0.049596563 -0.058957633 0.15161191
0.12263687 -0.04135602 -0.08312127 -0.003960421 0.03611429 0.011793641 -0.027340068 -0.08818677
0.110939085 -0.009017144 0.11426099 -0.15959309 -0.045333818 -0.14920492 -0.091291934 0.1469229
0.08828583 -0.05604481 0.039560348 0.052349005 0.14502217 0.11346309 -0.12401841 0.055570144
0.006110102 -0.101626895 0.11633873 0.0056347996 -0.10532692 0.06910956 0.07086292 -0.14816613
-0.15061204 0.09694545 0.07827364 -0.009194389 -0.12175239 -0.14745665 -0.07786771 -0.1340773
0.09104597 -0.0005163102 -0.13179563 0.11972714 0.037936825 -0.13348004 -0.11540349 -0.089573205

arith.constant7 f4 [3]
00000000: 6103 813b e439 3cbb 431d 92bb
0.0039371704 -0.002872103 -0.0044590547

arith.constant8 f4 [128]
00000000: 526e cdbb 48ef 2ebc 06c4 e6bb ebf3 19bc
00000010: eca4 86bb 4719 0d3c f01d 1abc 7fc7 c4bb
00000020: c249 2b3a 6516 b7bb 2033 0b3c 05da 34bc
00000030: 30c6 723c 0920 34bb d41c e43c 0000 0000
00000040: 21e6 a73c 0000 0000 0b0c 8f3c cd61 12bc
00000050: 774e f23b 6217 303b cda5 94bb 407d 293c
00000060: acfe 2a3c ab8a 983b 7d9f 063a ce2c 8fbb
00000070: 0000 0000 b3d8 8f3c 25ef a1bb 7af2 24bb
00000080: 7d12 c63b dd6a 123d 97a4 35bc 3d70 7e3c
00000090: 1eaa 2f3d c255 083d 0000 0000 9186 f43b
000000a0: 599f 183b 2fc8 c4bb 0000 0000 fc23 523c
000000b0: 26e3 483c 0000 0000 3a0d 1dbc f21e 96bc
000000c0: 18e5 093c b1e7 083c 90a1 bebb 066b ba3b
000000d0: ba6d fb3b 3644 67bb 3f3c a13c aba1 63bb
000000e0: 5c9a a73b bd73 02bc 6b01 08bc b4fa 44bb
000000f0: 0000 0000 188e 8cbb d348 febb b615 153c
00000100: cfef e6bb c904 09bc dfc1 aa3c e602 8fbb
00000110: 4819 b13b b745 7f3c f9c9 183a 3d04 ca3a
00000120: 96c0 e8bb 6070 4d3c 269c 06bb bf94 9ebb
00000130: b5a6 633b 7058 c33b cdb0 ea3a 09b9 c3bb
00000140: c855 d2bb ad71 da3b 8670 523c 4a1b 07bc
00000150: 198a 23bc 1e39 973c 99ad 683c 0de4 0abc
00000160: 993f 5b3c 0000 0000 5676 1dbb 21b2 09ba
00000170: 0000 0000 7f9a 79bc f4bb 46bb 304d 39bb
00000180: e586 123b c924 07bc b39b 0b3c 4567 c5bb
00000190: 24ba a63c b84a 0f3b f391 323c cc86 33bb
000001a0: a1fc 4f3c 71fc 833b 0000 0000 9b37 003d
000001b0: 40e3 083b e4d8 f63a f990 7bbb b95a 5e3b
000001c0: 01af 9a3c 1d3a a9bc 77ce fa3b 0871 923c
000001d0: f73f 8abb 2584 d53a f160 33bc 39e4 9b3b
000001e0: 6518 013c 67d1 093c c865 0fbc 74fd c73b
000001f0: 56cf d5bb 287a 3b3c 4a94 a73b 3afa d0b9
-0.0062692547 -0.010677166 -0.007042411 -0.0093965335 -0.0041090157 0.008611984 -0.009406552 -0.006005227
0.0006534123 -0.0055873864 0.008496076 -0.011038308 0.014817759 -0.0027484915 0.027845778 0.0
0.020495476 0.0 0.017461797 -0.00893445 0.0073946076 0.0026869406 -0.0045363666 0.010344803
0.010436695 0.0046552024 0.000513546 -0.004369355 0.0 0.017559385 -0.0049418383 -0.0025168941
0.0060446844 0.035746444 -0.011086605 0.015529689 0.042886846 0.03328491 0.0 0.0074623306
0.0023288338 -0.006005309 0.0 0.012825962 0.012261188 0.0 -0.009585673 -0.018325303
0.008416437 0.008356021 -0.0058175996 0.0056890277 0.0076729925 -0.003528846 0.019682048 -0.0034733813
0.0051148366 -0.0079621645 -0.008301119 -0.0030056657 0.0 -0.0042894 -0.007760146 0.009099415
-0.0070476304 -0.008362957 0.020844398 -0.004364359 0.005404625 0.015580586 0.0005828436 0.001541264
-0.007103036 0.012538999 -0.002053985 -0.0048395093 0.0034736816 0.0059614703 0.0017905474 -0.0059729856
-0.0064189173 0.0066663832 0.0128442105 -0.008246252 -0.0099816555 0.018459853 0.014201545 -0.008477223
0.013381862 0.0 -0.0024026833 -0.00052526785 0.0 -0.015234589 -0.003032443 -0.0028274767
0.0022358235 -0.008248516 0.008521008 -0.0060242736 0.02035243 0.0021864604 0.010899055 -0.0027393578
0.012694509 0.004027896 0.0 0.03130303 0.0020887405 0.0018832949 -0.003838597 0.0033928587
0.018882276 -0.020657593 0.007654007 0.017876163 -0.004219051 0.0016289992 -0.010948406 0.004757431
0.007879351 0.008411742 -0.008752294 0.006103212 -0.0065249605 0.011442699 0.005114113 -0.00039859285

sequential_1_1/conv2d_3_1/Relu;sequential_1_1/conv2d_3_1/BiasAdd;sequential_1_1/conv2d_3_1/convolution; f4 [32, 3, 3, 3]
00000000: 83f4 c839 a521 2cb8 9c12 dab9 61dd ae39
00000010: 75b9 1bb9 15cc 07ba 162e b1b9 9f3a 58b9
00000020: 7975 9cb9 e218 1c3a 97fc 9ab8 f60e 04ba
00000030: 15be 9938 ebee e639 1775 5e39 22bb c9b8
00000040: 8eaa 23b9 8c96 0db8 4c9c d5b9 89fe 1db9
00000050: 3729 4d38 859e e339 4a45 bd39 f629 10b8
00000060: daa4 113a 7a0a e0b9 2de8 f3b9 486d aa39
00000070: 65d0 31b9 2999 b0b8 6c80 b8b9 fb1c a639
00000080: ce17 a139 3c70 afb9 ed1c 4db8 ea15 c339
00000090: 1378 013a 1da0 b639 8248 b3b9 8eee c4b9
000000a0: 3750 8fb9 5802 f7b9 d496 043a d2e5 103a
000000b0: 7723 4bb8 d317 b1b8 2661 5838 7000 b5b9
000000c0: 4f3a b139 68c7 d137 e0b1 8338 43a5 11ba
000000d0: ad07 a7b9 1e75 10ba 6907 d439 cfbb 6c39
000000e0: 425f 3839 4b4d c239 5611 db38 6b02 98b9
000000f0: 8fe5 da39 5fe3 ae39 cdc8 ce39 5ceb ba39
00000100: f648 0839 564d aeb9 69a6 dfb9 ec9b f7b9
00000110: 3474 f5b9 7744 94b9 4b73 d739 d35a b839
00000120: 83a4 16ba 6a40 0bb8 90c1 9fb8 5acf 9838
00000130: bcdb de38 95fa f3b9 9a06 a6b9 2321 6a39
00000140: 299b d1b9 a6c8 d537 c105 4d39 5f2d bc39
00000150: 9a7f feb9 450b 13b9 3214 adb9 2c6c c3b8
00000160: 6f63 a1b9 de3b 13ba 71ab 033a e93b 2b39
00000170: 1f16 adb9 b627 9e39 b28a 57b8 9988 6739
00000180: 7822 f139 79fd 9f39 72d1 f7b9 0631 91b9
00000190: af27 c1b9 a0ee 9ab9 6e3a ad39 b964 b839
000001a0: 6c4f 21b9 bbb3 6a38 58a1 3eb9 17cf bd38
000001b0: b72a a9b8 cb01 a739 1227 8339 cb2d 123a
000001c0: 6a55 6ab9 1788 ff38 f0a2 e438 f251 98b9
000001d0: 1d3e 96b9 b647 db39 d3b9 8138 54da 5eb9
000001e0: 8213 4838 1a86 01ba 45cb ddb9 0aad 8239
000001f0: 9e59 5cb8 51dc 8238 9808 f037 bfb7 f3b9
00000200: afd7 d9b9 95cd 0cba ae65 9139 981d 0a3a
00000210: 1e67 c3b9 0272 dbb9 c2cd 113a 479e 5e39
00000220: 29d5 cbb9 7e2b 0dba bbe9 7638 3962 83b9
00000230: b439 acb9 1a95 03ba b94b 71b9 e65c bb38
00000240: 73a4 bab9 0b7e cbb9 3da4 2739 4295 53b9
00000250: 4eed c938 9d80 3f39 b4e7 03b9 a26b c239
00000260: 2f29 073a a41b 98b9 3297 67b9 3262 06ba
00000270: d4b4 f839 6a99 b938 0bec d3b9 dc62 ffb9
00000280: 7c7b 7938 b8a6 5538 a77f 14b9 9236 bfb9
00000290: 247f bb39 3695 043a 9644 3639 6058 9839
000002a0: 3312 6e39 7480 bab9 2a83 60b9 2618 d0b9
000002b0: ebc9 1e39 6e88 7939 991c 99b9 bf90 00ba
000002c0: 7773 9739 01b5 4cb9 cee8 f0b9 c9a6 9c39
000002d0: c0fa 6d39 7769 e3b9 33b2 68b7 1497 c039
000002e0: c686 c2b8 1b72 5a39 fc39 11b8 4c2a f039
000002f0: b551 3439 8c3d 1eb9 18af a139 c81b c9b9
00000300: c9a1 a4b8 01c0 cb38 df81 9539 9a5c 0eba
00000310: b81b 7cb9 ee13 a439 d46b 76b8 0165 2139
00000320: e4d4 e9b9 51c9 b6b9 b954 e139 b173 9039
00000330: 472c 8eb9 8069 ea39 bae0 203a 457e bf39
00000340: 2856 f4b6 1300 c639 ce97 c239 78a0 4439
00000350: 85da 9e39 2713 e838 32b2 113a 9839 213a
00000360: bd17 0a3a 0cb1 85b9 b68f 83b9 2f05 c339
00000370: 38c8 1739 90ce ceb8 2c2a 53b9 a025 ee39
00000380: cced 21b9 9ffe b0b9 90da 8b38 3183 a238
00000390: c1a0 96b9 2975 d239 943b f9b9 914b 0c3a
000003a0: da88 8a39 4132 87b9 bf88 8938 d10f 9138
000003b0: d2a5 8db8 932f e3b9 a718 3c39 3131 8e39
000003c0: bcfa f7b9 0bf2 aeb9 e6e0 34b9 72db dab9
000003d0: cc23 8338 3cb7 c1b8 0342 91b9 8ded 093a
000003e0: 56fd beb9 78a3 54b9 c589 72b9 0825 b539
000003f0: 26bd 2fb9 8d24 9438 a2a9 9a39 8d0a fab9
0.00038329148 -4.103933e-05 -0.00041594065 0.00033352806 -0.0001485104 -0.0005180252 -0.00033794407 -0.00020621203
-0.00029842163 0.00059546356 -7.390341e-05 -0.000503763 7.331014e-05 0.00044047026 0.00021215189 -9.619283e-05
-0.00015608428 -3.3757227e-05 -0.00040742976 -0.00015067509 4.8914193e-05 0.0004341492 0.00036100514 -3.4371355e-05
0.0005555876 -0.00042732415 -0.00046521556 0.00032506348 -0.00016957668 -8.420862e-05 -0.00035190897 0.0003168358
0.0003072605 -0.00033462222 -4.8902748e-05 0.00037209626 0.0004938852 0.0003483304 -0.00034195563 -0.0003756177
-0.0002733485 -0.00047113257 0.00050578755 0.000552741 -4.8432e-05 -8.444455e-05 5.158889e-05 -0.00034523336
0.00033803514 2.5007597e-05 6.2796986e-05 -0.0005555937 -0.0003185844 -0.0005510616 0.00040441312 0.00022576678
0.00017583094 0.0003706015 0.00010445963 -0.000289935 0.00041751235 0.0003335727 0.0003944099 0.0003565204
0.00012997151 -0.00033245486 -0.0004265786 -0.00047227682 -0.0004681662 -0.0002827977 0.00041093896 0.00035162884
-0.000574656 -3.3200173e-05 -7.617765e-05 7.286547e-05 0.000106267136 -0.0004653527 -0.00031666906 0.00022328323
-0.0003997919 2.5485013e-05 0.00019552467 0.00035891958 -0.00048541726 -0.0001402321 -0.00033012178 -9.318473e-05
-0.00030782397 -0.0005616526 0.00050228 0.00016330149 -0.00033013613 0.00030165695 -5.1389165e-05 0.00022080763
0.00045992783 0.00030515695 -0.0004726756 -0.0002769308 -0.00036841395 -0.00029550958 0.00033040665 0.0003517026
-0.00015383743 5.5957335e-05 -0.00018179917 9.050796e-05 -8.066504e-05 0.00031854058 0.00025015377 0.00055762817
-0.00022347798 0.00012184696 0.00010902237 -0.00029052753 -0.00028656507 0.00041824364 6.185812e-05 -0.00021252903
4.7701884e-05 -0.0004940942 -0.00042303852 0.00024924456 -5.253555e-05 6.23992e-05 2.8614231e-05 -0.00046485473
-0.00041550162 -0.000537121 0.00027732312 0.0005268692 -0.00037270127 -0.00041855877 0.00055619713 0.00021230533
-0.00038877994 -0.0005385204 5.886865e-05 -0.0002505945 -0.0003284939 -0.0005019471 -0.0002301176 8.9341585e-05
-0.0003559921 -0.00038813087 0.00015987545 -0.00020178131 9.628628e-05 0.00018263092 -0.0001257945 0.00037082756
0.0005155978 -0.00029012293 -0.00022086201 -0.00051263266 0.00047436974 8.850063e-05 -0.00040420922 -0.00048711046
5.948123e-05 5.0938426e-05 -0.00014161934 -0.00036471017 0.00035762147 0.00050576346 0.00017382423 0.00029057544
0.00022704228 -0.0003557239 -0.00021411167 -0.00039690844 0.00015143275 0.00023797314 -0.0002920374 -0.00049043813
0.00028886992 -0.00019522385 -0.0004594982 0.00029878903 0.00022695493 -0.0004337539 -1.3869768e-05 0.00036733656
-9.2757444e-05 0.00020832608 -3.4624696e-05 0.0004580788 0.00017196576 -0.00015090982 0.00030838768 -0.00038358406
-7.850264e-05 9.715558e-05 0.00028516256 -0.0005430669 -0.00024042919 0.00031295366 -5.8751393e-05 0.00015391783
-0.0004459984 -0.00034863738 0.00042978468 0.00027552017 -0.0002711734 0.00044710562 0.00061370025 0.00036524437
-7.2817966e-06 0.00037765558 0.00037115667 0.00018751796 0.00030298918 0.000110661895 0.0005557864 0.0006150245
0.00052678195 -0.00025499647 -0.0002509334 0.0003719716 0.0001447507 -9.861321e-05 -0.00020138238 0.0004542293
-0.00015442743 -0.00033759043 6.668747e-05 7.749198e-05 -0.0002873 0.00040141612 -0.0004753737 0.00053518364
0.00026423373 -0.0002578665 6.55814e-05 6.917085e-05 -6.7542904e-05 -0.0004333226 0.00017938261 0.00027121
-0.00047298323 -0.00033368202 -0.00017249919 -0.000417437 6.2532345e-05 -9.237087e-05 -0.00027705738 0.0005261533
-0.00036428374 -0.00020278792 -0.00023130242 0.000345506 -0.00016759764 7.063998e-05 0.00029499555 -0.00047691577
